…
  Loading attack traffic  : 1.mirai.udpplain.csv                                →   81,982 samples  [mirai.udpplain]

[2/6] Preprocessing …

  Train (benign)    :    26,425 samples
  Validation (benign):     6,607 samples
  Test  (benign)    :    16,516 samples
  Test  (attack)    :   968,750 samples
  Test  (total)     :   985,266 samples

[3/6] Building autoencoder …
Model: "DeepAutoencoder"
┏━━━━━━━━━━━━━━━━━━━━━━━━━━━━━━━━━━━━━━┳━━━━━━━━━━━━━━━━━━━━━━━━━━━━━┳━━━━━━━━━━━━━━━━━┓
┃ Layer (type)                         ┃ Output Shape                ┃         Param # ┃
┡━━━━━━━━━━━━━━━━━━━━━━━━━━━━━━━━━━━━━━╇━━━━━━━━━━━━━━━━━━━━━━━━━━━━━╇━━━━━━━━━━━━━━━━━┩
│ input (InputLayer)                   │ (None, 115)                 │               0 │
├──────────────────────────────────────┼─────────────────────────────┼─────────────────┤
│ enc_dense_0 (Dense)                  │ (None, 115)                 │          13,340 │
├──────────────────────────────────────┼─────────────────────────────┼─────────────────┤
│ enc_bn_0 (BatchNormalization)        │ (None, 115)                 │             460 │
├──────────────────────────────────────┼─────────────────────────────┼─────────────────┤
│ enc_act_0 (LeakyReLU)                │ (None, 115)                 │               0 │
├──────────────────────────────────────┼─────────────────────────────┼─────────────────┤
│ enc_dense_1 (Dense)                  │ (None, 86)                  │           9,976 │
├──────────────────────────────────────┼─────────────────────────────┼─────────────────┤
│ enc_bn_1 (BatchNormalization)        │ (None, 86)                  │             344 │
├──────────────────────────────────────┼─────────────────────────────┼─────────────────┤
│ enc_act_1 (LeakyReLU)                │ (None, 86)                  │               0 │
├──────────────────────────────────────┼─────────────────────────────┼─────────────────┤
│ enc_dense_2 (Dense)                  │ (None, 57)                  │           4,959 │
├──────────────────────────────────────┼─────────────────────────────┼─────────────────┤
│ enc_bn_2 (BatchNormalization)        │ (None, 57)                  │             228 │
├──────────────────────────────────────┼─────────────────────────────┼─────────────────┤
│ enc_act_2 (LeakyReLU)                │ (None, 57)                  │               0 │
├──────────────────────────────────────┼─────────────────────────────┼─────────────────┤
│ enc_dense_3 (Dense)                  │ (None, 37)                  │           2,146 │
├──────────────────────────────────────┼─────────────────────────────┼─────────────────┤
│ enc_bn_3 (BatchNormalization)        │ (None, 37)                  │             148 │
├──────────────────────────────────────┼─────────────────────────────┼─────────────────┤
│ enc_act_3 (LeakyReLU)                │ (None, 37)                  │               0 │
├──────────────────────────────────────┼─────────────────────────────┼─────────────────┤
│ bottleneck (Dense)                   │ (None, 28)                  │           1,064 │
├──────────────────────────────────────┼─────────────────────────────┼─────────────────┤
│ bottleneck_bn (BatchNormalization)   │ (None, 28)                  │             112 │
├──────────────────────────────────────┼─────────────────────────────┼─────────────────┤
│ bottleneck_act (LeakyReLU)           │ (None, 28)                  │               0 │
├──────────────────────────────────────┼─────────────────────────────┼─────────────────┤
│ dec_dense_0 (Dense)                  │ (None, 37)                  │           1,073 │
├──────────────────────────────────────┼─────────────────────────────┼─────────────────┤
│ dec_bn_0 (BatchNormalization)        │ (None, 37)                  │             148 │
├──────────────────────────────────────┼─────────────────────────────┼─────────────────┤
│ dec_act_0 (LeakyReLU)                │ (None, 37)                  │               0 │
├──────────────────────────────────────┼─────────────────────────────┼─────────────────┤
│ dec_dense_1 (Dense)                  │ (None, 57)                  │           2,166 │
├──────────────────────────────────────┼─────────────────────────────┼─────────────────┤
│ dec_bn_1 (BatchNormalization)        │ (None, 57)                  │             228 │
├──────────────────────────────────────┼─────────────────────────────┼─────────────────┤
│ dec_act_1 (LeakyReLU)                │ (None, 57)                  │               0 │
├──────────────────────────────────────┼─────────────────────────────┼─────────────────┤
│ dec_dense_2 (Dense)                  │ (None, 86)                  │           4,988 │
├──────────────────────────────────────┼─────────────────────────────┼─────────────────┤
│ dec_bn_2 (BatchNormalization)        │ (None, 86)                  │             344 │
├──────────────────────────────────────┼─────────────────────────────┼─────────────────┤
│ dec_act_2 (LeakyReLU)                │ (None, 86)                  │               0 │
├──────────────────────────────────────┼─────────────────────────────┼─────────────────┤
│ dec_dense_3 (Dense)                  │ (None, 115)                 │          10,005 │
├──────────────────────────────────────┼─────────────────────────────┼─────────────────┤
│ dec_bn_3 (BatchNormalization)        │ (None, 115)                 │             460 │
├──────────────────────────────────────┼─────────────────────────────┼─────────────────┤
│ dec_act_3 (LeakyReLU)                │ (None, 115)                 │               0 │
├──────────────────────────────────────┼─────────────────────────────┼─────────────────┤
│ output (Dense)                       │ (None, 115)                 │          13,340 │
└──────────────────────────────────────┴─────────────────────────────┴─────────────────┘
 Total params: 65,529 (255.97 KB)
 Trainable params: 64,293 (251.14 KB)
 Non-trainable params: 1,236 (4.83 KB)

[4/6] Training autoencoder …
Epoch 1/100
104/104 ━━━━━━━━━━━━━━━━━━━━ 3s 5ms/step - loss: 0.0500 - val_loss: 0.0168 - learning_rate: 0.0010
Epoch 2/100
104/104 ━━━━━━━━━━━━━━━━━━━━ 0s 4ms/step - loss: 0.0020 - val_loss: 0.0101 - learning_rate: 0.0010
…
