…
  Loading attack traffic  : 7.gafgyt.udp.csv                                    →  110,617 samples  [gafgyt.udp]

[2/6] Preprocessing …

  Train (benign)    :    27,812 samples
  Validation (benign):     6,954 samples
  Test  (benign)    :    17,384 samples
  Test  (attack)    :   323,072 samples
  Test  (total)     :   340,456 samples

[3/6] Building autoencoder …
Model: "DeepAutoencoder"
┏━━━━━━━━━━━━━━━━━━━━━━━━━━━━━━━━━┳━━━━━━━━━━━━━━━━━━━━━━━━┳━━━━━━━━━━━━━━━┓
┃ Layer (type)                    ┃ Output Shape           ┃       Param # ┃
┡━━━━━━━━━━━━━━━━━━━━━━━━━━━━━━━━━╇━━━━━━━━━━━━━━━━━━━━━━━━╇━━━━━━━━━━━━━━━┩
│ input (InputLayer)              │ (None, 115)            │             0 │
├─────────────────────────────────┼────────────────────────┼───────────────┤
│ enc_dense_0 (Dense)             │ (None, 115)            │        13,340 │
├─────────────────────────────────┼────────────────────────┼───────────────┤
│ enc_bn_0 (BatchNormalization)   │ (None, 115)            │           460 │
├─────────────────────────────────┼────────────────────────┼───────────────┤
│ enc_act_0 (LeakyReLU)           │ (None, 115)            │             0 │
├─────────────────────────────────┼────────────────────────┼───────────────┤
│ enc_dense_1 (Dense)             │ (None, 86)             │         9,976 │
├─────────────────────────────────┼────────────────────────┼───────────────┤
│ enc_bn_1 (BatchNormalization)   │ (None, 86)             │           344 │
├─────────────────────────────────┼────────────────────────┼───────────────┤
│ enc_act_1 (LeakyReLU)           │ (None, 86)             │             0 │
├─────────────────────────────────┼────────────────────────┼───────────────┤
│ enc_dense_2 (Dense)             │ (None, 57)             │         4,959 │
├─────────────────────────────────┼────────────────────────┼───────────────┤
│ enc_bn_2 (BatchNormalization)   │ (None, 57)             │           228 │
├─────────────────────────────────┼────────────────────────┼───────────────┤
│ enc_act_2 (LeakyReLU)           │ (None, 57)             │             0 │
├─────────────────────────────────┼────────────────────────┼───────────────┤
│ enc_dense_3 (Dense)             │ (None, 37)             │         2,146 │
├─────────────────────────────────┼────────────────────────┼───────────────┤
│ enc_bn_3 (BatchNormalization)   │ (None, 37)             │           148 │
├─────────────────────────────────┼────────────────────────┼───────────────┤
│ enc_act_3 (LeakyReLU)           │ (None, 37)             │             0 │
├─────────────────────────────────┼────────────────────────┼───────────────┤
│ bottleneck (Dense)              │ (None, 28)             │         1,064 │
├─────────────────────────────────┼────────────────────────┼───────────────┤
│ bottleneck_bn                   │ (None, 28)             │           112 │
│ (BatchNormalization)            │                        │               │
├─────────────────────────────────┼────────────────────────┼───────────────┤
│ bottleneck_act (LeakyReLU)      │ (None, 28)             │             0 │
├─────────────────────────────────┼────────────────────────┼───────────────┤
│ dec_dense_0 (Dense)             │ (None, 37)             │         1,073 │
├─────────────────────────────────┼────────────────────────┼───────────────┤
│ dec_bn_0 (BatchNormalization)   │ (None, 37)             │           148 │
├─────────────────────────────────┼────────────────────────┼───────────────┤
│ dec_act_0 (LeakyReLU)           │ (None, 37)             │             0 │
├─────────────────────────────────┼────────────────────────┼───────────────┤
│ dec_dense_1 (Dense)             │ (None, 57)             │         2,166 │
├─────────────────────────────────┼────────────────────────┼───────────────┤
│ dec_bn_1 (BatchNormalization)   │ (None, 57)             │           228 │
├─────────────────────────────────┼────────────────────────┼───────────────┤
│ dec_act_1 (LeakyReLU)           │ (None, 57)             │             0 │
├─────────────────────────────────┼────────────────────────┼───────────────┤
│ dec_dense_2 (Dense)             │ (None, 86)             │         4,988 │
├─────────────────────────────────┼────────────────────────┼───────────────┤
│ dec_bn_2 (BatchNormalization)   │ (None, 86)             │           344 │
├─────────────────────────────────┼────────────────────────┼───────────────┤
│ dec_act_2 (LeakyReLU)           │ (None, 86)             │             0 │
├─────────────────────────────────┼────────────────────────┼───────────────┤
│ dec_dense_3 (Dense)             │ (None, 115)            │        10,005 │
├─────────────────────────────────┼────────────────────────┼───────────────┤
│ dec_bn_3 (BatchNormalization)   │ (None, 115)            │           460 │
├─────────────────────────────────┼────────────────────────┼───────────────┤
│ dec_act_3 (LeakyReLU)           │ (None, 115)            │             0 │
├─────────────────────────────────┼────────────────────────┼───────────────┤
│ output (Dense)                  │ (None, 115)            │        13,340 │
└─────────────────────────────────┴────────────────────────┴───────────────┘
 Total params: 65,529 (255.97 KB)
 Trainable params: 64,293 (251.14 KB)
 Non-trainable params: 1,236 (4.83 KB)

[4/6] Training autoencoder …
Epoch 1/100
[1m  1/109[0m [37m━━━━━━━━━━━━━━━━━━━━[0m [1m7:54[0m 4s/step - loss: 0.6087[1m 21/109[0m [32m━━━[0m
…
