[STEP 1] Loading data ...
[INFO] Loaded benign data: 52150 samples.
[INFO] Loaded attack data: 323072 samples from 5 files.
[STEP 2] Preprocessing ...
[INFO] Train normal: 27812, Val normal: 6954, Test normal: 17384, Test attack: 323072
[STEP 3] Building autoencoder ...
Model: "autoencoder"
┏━━━━━━━━━━━━━━━━━━━━━━━━━━━━━━━━━┳━━━━━━━━━━━━━━━━━━━━━━━━┳━━━━━━━━━━━━━━━┓
┃ Layer (type)                    ┃ Output Shape           ┃       Param # ┃
┡━━━━━━━━━━━━━━━━━━━━━━━━━━━━━━━━━╇━━━━━━━━━━━━━━━━━━━━━━━━╇━━━━━━━━━━━━━━━┩
│ input (InputLayer)              │ (None, 115)            │             0 │
├─────────────────────────────────┼────────────────────────┼───────────────┤
│ enc_dense_0 (Dense)             │ (None, 115)            │        13,340 │
├─────────────────────────────────┼────────────────────────┼───────────────┤
│ enc_bn_0 (BatchNormalization)   │ (None, 115)            │           460 │
├─────────────────────────────────┼────────────────────────┼───────────────┤
│ enc_leaky_0 (LeakyReLU)         │ (None, 115)            │             0 │
├─────────────────────────────────┼────────────────────────┼───────────────┤
│ enc_dense_1 (Dense)             │ (None, 86)             │         9,976 │
├─────────────────────────────────┼────────────────────────┼───────────────┤
│ enc_bn_1 (BatchNormalization)   │ (None, 86)             │           344 │
├─────────────────────────────────┼────────────────────────┼───────────────┤
│ enc_leaky_1 (LeakyReLU)         │ (None, 86)             │             0 │
├─────────────────────────────────┼────────────────────────┼───────────────┤
│ enc_dense_2 (Dense)             │ (None, 57)             │         4,959 │
├─────────────────────────────────┼────────────────────────┼───────────────┤
│ enc_bn_2 (BatchNormalization)   │ (None, 57)             │           228 │
├─────────────────────────────────┼────────────────────────┼───────────────┤
│ enc_leaky_2 (LeakyReLU)         │ (None, 57)             │             0 │
├─────────────────────────────────┼────────────────────────┼───────────────┤
│ enc_dense_3 (Dense)             │ (None, 37)             │         2,146 │
├─────────────────────────────────┼────────────────────────┼───────────────┤
│ enc_bn_3 (BatchNormalization)   │ (None, 37)             │           148 │
├─────────────────────────────────┼────────────────────────┼───────────────┤
│ enc_leaky_3 (LeakyReLU)         │ (None, 37)             │             0 │
├─────────────────────────────────┼────────────────────────┼───────────────┤
│ bottleneck_dense (Dense)        │ (None, 28)             │         1,064 │
├─────────────────────────────────┼────────────────────────┼───────────────┤
│ bottleneck_bn                   │ (None, 28)             │           112 │
│ (BatchNormalization)            │                        │               │
├─────────────────────────────────┼────────────────────────┼───────────────┤
│ bottleneck_leaky (LeakyReLU)    │ (None, 28)             │             0 │
├─────────────────────────────────┼────────────────────────┼───────────────┤
│ dec_dense_0 (Dense)             │ (None, 37)             │         1,073 │
├─────────────────────────────────┼────────────────────────┼───────────────┤
│ dec_bn_0 (BatchNormalization)   │ (None, 37)             │           148 │
├─────────────────────────────────┼────────────────────────┼───────────────┤
│ dec_leaky_0 (LeakyReLU)         │ (None, 37)             │             0 │
├─────────────────────────────────┼────────────────────────┼───────────────┤
│ dec_dense_1 (Dense)             │ (None, 57)             │         2,166 │
├─────────────────────────────────┼────────────────────────┼───────────────┤
│ dec_bn_1 (BatchNormalization)   │ (None, 57)             │           228 │
├─────────────────────────────────┼────────────────────────┼───────────────┤
│ dec_leaky_1 (LeakyReLU)         │ (None, 57)             │             0 │
├─────────────────────────────────┼────────────────────────┼───────────────┤
│ dec_dense_2 (Dense)             │ (None, 86)             │         4,988 │
├─────────────────────────────────┼────────────────────────┼───────────────┤
│ dec_bn_2 (BatchNormalization)   │ (None, 86)             │           344 │
├─────────────────────────────────┼────────────────────────┼───────────────┤
│ dec_leaky_2 (LeakyReLU)         │ (None, 86)             │             0 │
├─────────────────────────────────┼────────────────────────┼───────────────┤
│ dec_dense_3 (Dense)             │ (None, 115)            │        10,005 │
├─────────────────────────────────┼────────────────────────┼───────────────┤
│ dec_bn_3 (BatchNormalization)   │ (None, 115)            │           460 │
├─────────────────────────────────┼────────────────────────┼───────────────┤
│ dec_leaky_3 (LeakyReLU)         │ (None, 115)            │             0 │
├─────────────────────────────────┼────────────────────────┼───────────────┤
│ output (Dense)                  │ (None, 115)            │        13,340 │
└─────────────────────────────────┴────────────────────────┴───────────────┘
 Total params: 65,529 (255.97 KB)
 Trainable params: 64,293 (251.14 KB)
 Non-trainable params: 1,236 (4.83 KB)
[STEP 4] Training autoencoder (benign only) ...
Epoch 1/100
[1m  1/870[0m [37m━━━━━━━━━━━━━━━━━━━━[0m [1m55:43[0m 4s/step - loss: 0.6352[1m 31/
…
