…
  Loading attack traffic  : 2.mirai.udpplain.csv                                →   87,368 samples  [mirai.udpplain]

[2/6] Preprocessing …

  Train (benign)    :     6,993 samples
  Validation (benign):     1,749 samples
  Test  (benign)    :     4,371 samples
  Test  (attack)    :   822,763 samples
  Test  (total)     :   827,134 samples

[3/6] Building autoencoder …
Model: "DeepAutoencoder"
┏━━━━━━━━━━━━━━━━━━━━━━━━━━━━━━━━━┳━━━━━━━━━━━━━━━━━━━━━━━━┳━━━━━━━━━━━━━━━┓
┃ Layer (type)                    ┃ Output Shape           ┃       Param # ┃
┡━━━━━━━━━━━━━━━━━━━━━━━━━━━━━━━━━╇━━━━━━━━━━━━━━━━━━━━━━━━╇━━━━━━━━━━━━━━━┩
│ input (InputLayer)              │ (None, 115)            │             0 │
├─────────────────────────────────┼────────────────────────┼───────────────┤
│ enc_dense_0 (Dense)             │ (None, 115)            │        13,340 │
├─────────────────────────────────┼────────────────────────┼───────────────┤
│ enc_bn_0 (BatchNormalization)   │ (None, 115)            │           460 │
├─────────────────────────────────┼────────────────────────┼───────────────┤
│ enc_act_0 (LeakyReLU)           │ (None, 115)            │             0 │
├─────────────────────────────────┼────────────────────────┼───────────────┤
│ enc_dense_1 (Dense)             │ (None, 86)             │         9,976 │
├─────────────────────────────────┼────────────────────────┼───────────────┤
│ enc_bn_1 (BatchNormalization)   │ (None, 86)             │           344 │
├─────────────────────────────────┼────────────────────────┼───────────────┤
│ enc_act_1 (LeakyReLU)           │ (None, 86)             │             0 │
├─────────────────────────────────┼────────────────────────┼───────────────┤
│ enc_dense_2 (Dense)             │ (None, 57)             │         4,959 │
├─────────────────────────────────┼────────────────────────┼───────────────┤
│ enc_bn_2 (BatchNormalization)   │ (None, 57)             │           228 │
├─────────────────────────────────┼────────────────────────┼───────────────┤
│ enc_act_2 (LeakyReLU)           │ (None, 57)             │             0 │
├─────────────────────────────────┼────────────────────────┼───────────────┤
│ enc_dense_3 (Dense)             │ (None, 37)             │         2,146 │
├─────────────────────────────────┼────────────────────────┼───────────────┤
│ enc_bn_3 (BatchNormalization)   │ (None, 37)             │           148 │
├─────────────────────────────────┼────────────────────────┼───────────────┤
│ enc_act_3 (LeakyReLU)           │ (None, 37)             │             0 │
├─────────────────────────────────┼────────────────────────┼───────────────┤
│ bottleneck (Dense)              │ (None, 28)             │         1,064 │
├─────────────────────────────────┼────────────────────────┼───────────────┤
│ bottleneck_bn                   │ (None, 28)             │           112 │
│ (BatchNormalization)            │                        │               │
├─────────────────────────────────┼────────────────────────┼───────────────┤
│ bottleneck_act (LeakyReLU)      │ (None, 28)             │             0 │
├─────────────────────────────────┼────────────────────────┼───────────────┤
│ dec_dense_0 (Dense)             │ (None, 37)             │         1,073 │
├─────────────────────────────────┼────────────────────────┼───────────────┤
│ dec_bn_0 (BatchNormalization)   │ (None, 37)             │           148 │
├─────────────────────────────────┼────────────────────────┼───────────────┤
│ dec_act_0 (LeakyReLU)           │ (None, 37)             │             0 │
├─────────────────────────────────┼────────────────────────┼───────────────┤
│ dec_dense_1 (Dense)             │ (None, 57)             │         2,166 │
├─────────────────────────────────┼────────────────────────┼───────────────┤
│ dec_bn_1 (BatchNormalization)   │ (None, 57)             │           228 │
├─────────────────────────────────┼────────────────────────┼───────────────┤
│ dec_act_1 (LeakyReLU)           │ (None, 57)             │             0 │
├─────────────────────────────────┼────────────────────────┼───────────────┤
│ dec_dense_2 (Dense)             │ (None, 86)             │         4,988 │
├─────────────────────────────────┼────────────────────────┼───────────────┤
│ dec_bn_2 (BatchNormalization)   │ (None, 86)             │           344 │
├─────────────────────────────────┼────────────────────────┼───────────────┤
│ dec_act_2 (LeakyReLU)           │ (None, 86)             │             0 │
├─────────────────────────────────┼────────────────────────┼───────────────┤
│ dec_dense_3 (Dense)             │ (None, 115)            │        10,005 │
├─────────────────────────────────┼────────────────────────┼───────────────┤
│ dec_bn_3 (BatchNormalization)   │ (None, 115)            │           460 │
├─────────────────────────────────┼────────────────────────┼───────────────┤
│ dec_act_3 (LeakyReLU)           │ (None, 115)            │             0 │
├─────────────────────────────────┼────────────────────────┼───────────────┤
│ output (Dense)                  │ (None, 115)            │        13,340 │
└─────────────────────────────────┴────────────────────────┴───────────────┘
 Total params: 65,529 (255.97 KB)
 Trainable params: 64,293 (251.14 KB)
 Non-trainable params: 1,236 (4.83 KB)

[4/6] Training autoencoder …
Epoch 1/100
[1m 1/28[0m [37m━━━━━━━━━━━━━━━━━━━━[0m [1m1:18[0m 3s/step - loss: 0.6383[1m17/28[0m [32m━━━━━━━━━━━━[0m[37m━━━━━━━━[0m [1m0s[0m 3ms/step - loss: 0.4160 [1m28/28[0m [32m━━━━━━━━━━━━━━━━━━━━[0m[37m[0m [1m3s[0m 15ms/step - loss: 0.1890 - val_loss: 0.0731 - learning_rate: 0.0010
…
