…
[3] Preprocessing …
  Replaced Inf→NaN→0: benign 0 | attack 0 cells
  Train      (benign only) :      6,993
  Validation (benign only) :      1,749
  Test       (mixed)       :    827,134  (benign 4,371 + attack 822,763)
  MinMaxScaler fitted on training data and applied to all splits.

[4] Building autoencoder …
  Model: "DeepAutoencoder"
┏━━━━━━━━━━━━━━━━━━━━━━━━━━━━━━━━━┳━━━━━━━━━━━━━━━━━━━━━━━━┳━━━━━━━━━━━━━━━┓
┃ Layer (type)                    ┃ Output Shape           ┃       Param # ┃
┡━━━━━━━━━━━━━━━━━━━━━━━━━━━━━━━━━╇━━━━━━━━━━━━━━━━━━━━━━━━╇━━━━━━━━━━━━━━━┩
│ input (InputLayer)              │ (None, 115)            │             0 │
├─────────────────────────────────┼────────────────────────┼───────────────┤
│ enc_dense_0 (Dense)             │ (None, 115)            │        13,340 │
├─────────────────────────────────┼────────────────────────┼───────────────┤
│ enc_bn_0 (BatchNormalization)   │ (None, 115)            │           460 │
├─────────────────────────────────┼────────────────────────┼───────────────┤
│ enc_lrelu_0 (LeakyReLU)         │ (None, 115)            │             0 │
├─────────────────────────────────┼────────────────────────┼───────────────┤
│ enc_dense_1 (Dense)             │ (None, 86)             │         9,976 │
├─────────────────────────────────┼────────────────────────┼───────────────┤
│ enc_bn_1 (BatchNormalization)   │ (None, 86)             │           344 │
├─────────────────────────────────┼────────────────────────┼───────────────┤
│ enc_lrelu_1 (LeakyReLU)         │ (None, 86)             │             0 │
├─────────────────────────────────┼────────────────────────┼───────────────┤
│ enc_dense_2 (Dense)             │ (None, 58)             │         5,046 │
├─────────────────────────────────┼────────────────────────┼───────────────┤
│ enc_bn_2 (BatchNormalization)   │ (None, 58)             │           232 │
├─────────────────────────────────┼────────────────────────┼───────────────┤
│ enc_lrelu_2 (LeakyReLU)         │ (None, 58)             │             0 │
├─────────────────────────────────┼────────────────────────┼───────────────┤
│ enc_dense_3 (Dense)             │ (None, 38)             │         2,242 │
├─────────────────────────────────┼────────────────────────┼───────────────┤
│ enc_bn_3 (BatchNormalization)   │ (None, 38)             │           152 │
├─────────────────────────────────┼────────────────────────┼───────────────┤
│ enc_lrelu_3 (LeakyReLU)         │ (None, 38)             │             0 │
├─────────────────────────────────┼────────────────────────┼───────────────┤
│ bottleneck (Dense)              │ (None, 29)             │         1,131 │
├─────────────────────────────────┼────────────────────────┼───────────────┤
│ bottleneck_bn                   │ (None, 29)             │           116 │
│ (BatchNormalization)            │                        │               │
├─────────────────────────────────┼────────────────────────┼───────────────┤
│ bottleneck_lrelu (LeakyReLU)    │ (None, 29)             │             0 │
├─────────────────────────────────┼────────────────────────┼───────────────┤
│ dec_dense_0 (Dense)             │ (None, 38)             │         1,140 │
├─────────────────────────────────┼────────────────────────┼───────────────┤
│ dec_bn_0 (BatchNormalization)   │ (None, 38)             │           152 │
├─────────────────────────────────┼────────────────────────┼───────────────┤
│ dec_lrelu_0 (LeakyReLU)         │ (None, 38)             │             0 │
├─────────────────────────────────┼────────────────────────┼───────────────┤
│ dec_dense_1 (Dense)             │ (None, 58)             │         2,262 │
├─────────────────────────────────┼────────────────────────┼───────────────┤
│ dec_bn_1 (BatchNormalization)   │ (None, 58)             │           232 │
├─────────────────────────────────┼────────────────────────┼───────────────┤
│ dec_lrelu_1 (LeakyReLU)         │ (None, 58)             │             0 │
├─────────────────────────────────┼────────────────────────┼───────────────┤
│ dec_dense_2 (Dense)             │ (None, 86)             │         5,074 │
├─────────────────────────────────┼────────────────────────┼───────────────┤
│ dec_bn_2 (BatchNormalization)   │ (None, 86)             │           344 │
├─────────────────────────────────┼────────────────────────┼───────────────┤
│ dec_lrelu_2 (LeakyReLU)         │ (None, 86)             │             0 │
├─────────────────────────────────┼────────────────────────┼───────────────┤
│ dec_dense_3 (Dense)             │ (None, 115)            │        10,005 │
├─────────────────────────────────┼────────────────────────┼───────────────┤
│ dec_bn_3 (BatchNormalization)   │ (None, 115)            │           460 │
├─────────────────────────────────┼────────────────────────┼───────────────┤
│ dec_lrelu_3 (LeakyReLU)         │ (None, 115)            │             0 │
├─────────────────────────────────┼────────────────────────┼───────────────┤
│ output (Dense)                  │ (None, 115)            │        13,340 │
└─────────────────────────────────┴────────────────────────┴───────────────┘
 Total params: 66,048 (258.00 KB)
 Trainable params: 64,802 (253.13 KB)
 Non-trainable params: 1,246 (4.87 KB)


[5] Training autoencoder …

Epoch 1/100
[1m 1/28[0m [37m━━━━━━━━━━━━━━━━━━━━[0m [1m1:23[0m 3s/step - loss: 0.6528[1m26/28[0m [32m━━━━━━━━━━━━━━━━━━[0m[37m━━[0m [1m0s[0m 2ms/step - loss: 0.3609 [1m28/28[0m [32m━━━━━━━━━━━━━━━━━━━━[0m[37m[0m [1m3s[0m 9ms/step - loss: 0.1971 - val_loss: 0.0645 - learning_rate: 0.0010
…
